ecg_cnn_1d_3layers.pth (torch, 210186 bytes, 22 tensors)

conv1.weight f4 [32, 12, 5]
0	0x3da03e31	0.07824362
1	0x3b26ced6	0.0025452874
2	0xbd280845	-0.04102351
3	0xbcc2746d	-0.023737157
4	0xbd97075e	-0.07374452
5	0xbdaedb52	-0.08537926
6	0xbd7d6298	-0.061861604
7	0xbd1d23bc	-0.038364157
8	0x3cfd8222	0.030945841
9	0x3d08afd2	0.0333708
10	0xbd496302	-0.049166687
11	0x3d02a8a9	0.031899128
12	0x3dc2c859	0.095108695
13	0xbdbad187	-0.091219954
14	0x3e02e888	0.12784016
15	0xbccdc6ad	-0.02511915
16	0xbb6460bf	-0.0034847704
17	0x3d9b74c2	0.07590629
18	0x3e00b613	0.12569456
19	0x3d568e51	0.052381817
20	0x3bc4e7cd	0.006009078
21	0xbdd7ea69	-0.10542757
22	0x3d0748b6	0.033028327
23	0xbe060755	-0.13088734
24	0x3ddc8c65	0.10768966
25	0x3de2c1a9	0.11072094
26	0x3de3956d	0.11112485
27	0x3e0da334	0.13831788
28	0xbd9fbecd	-0.07800064
29	0xbd8ce7dc	-0.06880161
30	0x3dcf91e7	0.101352505
31	0xbdb08a94	-0.08620182
32	0xbd219f2f	-0.03945845
33	0x3de2ee41	0.110805996
34	0x3d89ab1f	0.06722092
35	0x3d617534	0.055043414
36	0xbdd920ab	-0.10601934
37	0xbc97a0cb	-0.01850929
38	0x3dfde823	0.12397792
39	0xbd74323c	-0.05961822
40	0x3da3bd47	0.07995086
41	0xbdef2810	-0.11677563
42	0xbd146463	-0.03622855
43	0x3b894a68	0.004189778
44	0x3d28da2a	0.041223682
45	0x3d9afab0	0.07567346
46	0xbd4d9b90	-0.050197184
47	0x3dcaba11	0.098987706
48	0xbd0145c6	-0.03156068
49	0xbe086c3a	-0.13322535
50	0xbe04a7eb	-0.1295468
51	0x3d8f2d19	0.069910236
52	0x3de44261	0.11145473
53	0xbd318057	-0.043335285
54	0xbde5dec1	-0.112241276
55	0x3d8b5f52	0.0680529
56	0x3dd3cdd4	0.10341993
57	0xbe0afe12	-0.13573483
58	0x3d79606f	0.060882982
59	0xbdc9017d	-0.09814737
60	0xbd9c567e	-0.076336846
61	0x3e09e1b0	0.13464999
62	0xbd924212	-0.07141508
63	0xbd37ef50	-0.04490596
64	0xbd1e16c5	-0.038595933
65	0xbcbd742d	-0.023126686
66	0xbc2becbc	-0.010493454
67	0x3d484064	0.048889533
68	0x3d7e349e	0.0620619
69	0xbcdc5b47	-0.026898993
70	0xbd384d2f	-0.044995483
71	0x3d148fa5	0.036269803
72	0x3c86c6ea	0.016452271
73	0xbd1acd25	-0.037793297
74	0xbd8c1a91	-0.06841005
75	0x3c2da0fd	0.010597465
76	0x3dac3930	0.08409345
77	0x3d57cb75	0.052684266
78	0x3df07cbe	0.11742543
79	0x3da9ab61	0.08284641
80	0x3d0506c4	0.032477155
81	0x3da83c13	0.08214583
82	0x3d229a2a	0.039697804
83	0xbc5da34d	-0.0135277035
84	0xbde4b0fb	-0.11166569
85	0xbda3c43e	-0.079964146
86	0x3b07a571	0.0020697976
87	0x3c98ad53	0.018637335
88	0x3db645e7	0.089000516
89	0xbc56316f	-0.013073309
90	0x3d9916d0	0.07475054
91	0x3da4e93e	0.080523
92	0x3ce6b50c	0.028162502
93	0xbd36051c	-0.044438466
94	0xbdca2d79	-0.098719545
95	0x3d8fa1f4	0.07013312
96	0xbc1e7c51	-0.009673194
97	0xbcc7625a	-0.02433889
98	0xbd26bd7e	-0.040708058
99	0x3da8e3f4	0.082466036
100	0x3d920125	0.071291246
101	0xbdf9b162	-0.12192036
102	0xbd8cb767	-0.06870919
103	0xbda678d1	-0.08128513
104	0xbdeecdd5	-0.11660353
105	0x3d777386	0.060412906
106	0x3d6becf2	0.057599016
107	0x3c8fda2f	0.017560093
108	0xbc962c89	-0.018331783
109	0xbe1762c9	-0.14783777
110	0x3dacafc7	0.08431964
111	0x3da37af4	0.07982436
112	0xbd79b631	-0.060964767
113	0x3d98a761	0.074538
114	0xbe242461	-0.16029502
115	0xbce6eb6b	-0.028188428
116	0x3d69b08e	0.05705314
117	0x3d6211ff	0.055192944
118	0xbdf59b0f	-0.11992466
119	0x3b1f4034	0.0024299743
120	0xbdd8eeef	-0.10592448
121	0xbcf92452	-0.030412827
122	0x3d2cf683	0.04222728
123	0x3de1863f	0.110119335
124	0x3dd122d1	0.10211719
125	0x3e1df5ff	0.15425871
126	0xbcd33a25	-0.025784561
127	0xbdf9aecf	-0.12191545
128	0xbd29009d	-0.04126035
129	0xbd9d52f3	-0.07681837
130	0x3de6ff54	0.11279169
131	0xbd37850c	-0.044804618
132	0xbd426a28	-0.04746452
133	0xbd4a70fd	-0.04942416
134	0xbd9818e7	-0.07426625
135	0xbdd367fa	-0.10322566
136	0xbdb427ef	-0.08796679
137	0x3d6a0d1a	0.0571414
138	0x3cbe287f	0.02321267
139	0xbbe0f50e	-0.0068651503
140	0x3dbbf6a5	0.09177903
141	0x3d2a6e3a	0.041609026
142	0xbdfa3aa8	-0.12218219
143	0x3c1e79e3	0.009672615
144	0xbd5c9ada	-0.053858615
145	0x3e0fdb66	0.14048538
146	0x3dc3306a	0.095307186
147	0x3d903bce	0.07042657
148	0x3cd30405	0.025758753
149	0x3ddd4cb7	0.10805648
150	0xbdbf9d31	-0.09356154
151	0xbd0932c9	-0.033495698
152	0x3deb5a0d	0.11491785
153	0xbb9d37ce	-0.004797912
154	0x3d5c2aad	0.053751636
155	0xbc9abe1b	-0.018889477
156	0xb9d41245	-0.00040449403
157	0xba396205	-0.0007071796
158	0x3cadadf8	0.021201119
159	0x3a9524ae	0.0011378729
160	0xbd9a4b71	-0.075339206
161	0xbda2f3bf	-0.07956647
162	0x3d686ef3	0.056746434
163	0x3df769e4	0.12080744
164	0x3d1f3c79	0.03887603
165	0x3df19d1b	0.117975436
166	0xbd4dff45	-0.050292272
167	0xbdf49b54	-0.11943689
168	0xbd98a010	-0.074524045
169	0xbb83e903	-0.00402558
170	0x3a8a41c1	0.0010548161
171	0xbd498770	-0.04920143
172	0xbd71a281	-0.058992866
173	0xbda28d5e	-0.0793712
174	0xbd7e2af0	-0.062052667
175	0xbd8763c6	-0.06610827
176	0x3dd025bc	0.10163447
177	0xbe053887	-0.13009845
178	0x3da5acf9	0.080896325
179	0x39d5f323	0.00040807677
180	0x3c4b600f	0.012413039
181	0xbe0f53a8	-0.13996756
182	0xbd2fd735	-0.042929847
183	0xbde6932c	-0.112585396
184	0x3da2bbb5	0.079459585
185	0x3df1e2da	0.118108466
186	0x3b09ce1a	0.0021027387
187	0xbda5ca44	-0.0809522
188	0x3c68387a	0.014173621
189	0xbc430930	-0.011904046
190	0x3e27d45a	0.163896
191	0xbd66e11d	-0.05636703
192	0x3c828c75	0.015936116
193	0x3d8fb417	0.07016771
194	0xbdd3ffb3	-0.10351505
195	0x3cdf533e	0.027261373
196	0x3dc4f5e5	0.09617213
197	0xbd8016c8	-0.06254345
198	0xbd270831	-0.040779296
199	0xbd958f62	-0.07302739
200	0xbd0a93e9	-0.033832464
201	0xbdb55b8e	-0.08855353
202	0x3db5fa2a	0.08885606
203	0x3d346a4f	0.044046696
204	0xbda37957	-0.07982128
205	0x3d55077e	0.0520091
206	0x3df88ae0	0.12135863
207	0x3dc78bba	0.097434476
208	0x3d412d10	0.047162116
209	0xbcb3705a	-0.02190416
210	0x3e3ac7e7	0.18240319
211	0x3dd03e6f	0.10168158
212	0x3ca4ad4d	0.020102168
213	0xbd8f2a32	-0.0699047
214	0xbcfdbe39	-0.030974494
215	0x3db0c722	0.086317316
216	0xbb184723	-0.002323576
217	0xbdcb9795	-0.09941021
218	0xbd9cef65	-0.076628484
219	0xbda16685	-0.07880882
220	0xbd381ae0	-0.044947505
221	0xbe044f9f	-0.12920998
222	0x3d6d1466	0.05788078
223	0xba424a5d	-0.00074115937
224	0xbd992880	-0.07478428
225	0xbdb977a0	-0.0905602
226	0x3d803d01	0.062616356
227	0xbba1c423	-0.0049367114
228	0xbc696fea	-0.014247874
229	0x3db8e675	0.09028331
230	0xbc10c223	-0.008835348
231	0x3c4234ea	0.011853436
232	0x3dbc127b	0.09183212
233	0xbd5a97b3	-0.053367328
234	0x3cc1934c	0.023629807
235	0xbdffd153	-0.12491097
236	0x3c86d7af	0.016460268
237	0x3dca7471	0.09885491
238	0x3d43f1d5	0.04783805
239	0x3cc306e7	0.023807002
240	0xbcbbeb5b	-0.022939375
241	0xbde7bd14	-0.11315361
242	0x3d9a78b3	0.07542553
243	0x3d5585d7	0.052129593
244	0x3d967ab4	0.073476225
245	0x3da6ab08	0.0813809
246	0xbd421715	-0.047385294
247	0xbdf84828	-0.12123138
248	0xbdbc312e	-0.09189068
249	0xbe224982	-0.15848354
250	0xbd74faab	-0.059809368
251	0x3df6c005	0.120483436
252	0x3dd4e4af	0.103951804
253	0xbb560527	-0.003265688
254	0xbd40e7ca	-0.04709605
255	0xbdcd85ae	-0.10035263

conv1.bias f4 [32]
0	0x3dc38727	0.09547263
1	0xbdb32e16	-0.087490246
2	0x3b8c2b23	0.0042776032
3	0x3d6a96eb	0.057272833
4	0xbde184e3	-0.11011674
5	0x3d8f87a5	0.07008294
6	0x3dd995d3	0.1062428
7	0xbd6f7462	-0.0584606
8	0x3aa99f1d	0.0012941096
9	0x3df8b76b	0.12144359
10	0xbc396099	-0.011314535
11	0x3dbeabfc	0.09310147
12	0xbc7da9b3	-0.015482354
13	0xb977b63b	-0.00023623642
14	0xbd507843	-0.05089594
15	0xbda71a1f	-0.08159279
16	0xbdf51fe3	-0.119689725
17	0xbc2b0d87	-0.010440237
18	0xbdf2e729	-0.118604966
19	0xbd84acfa	-0.06478305
20	0xbcc103bd	-0.023561353
21	0x3c976412	0.018480334
22	0xbd8b142f	-0.06790959
23	0xbd078c1a	-0.033092596
24	0x3d2fa0de	0.042878024
25	0x3d9a154e	0.07523595
26	0x3dae2c43	0.08504536
27	0x3ca0dd07	0.019636644
28	0x3da25bb2	0.07927646
29	0xbdfb9644	-0.1228452
30	0x3bbb2f0d	0.005712396
31	0xbd46d4ba	-0.048542716

bn1.weight f4 [32]
0	0x3f819113	1.0122398
1	0x3f76ca56	0.9640249
2	0x3f78eca6	0.97236097
3	0x3f83a69e	1.0285223
4	0x3f80bd93	1.0057853
5	0x3f822d83	1.0170139
6	0x3f844af5	1.0335375
7	0x3f808259	1.0039779
8	0x3f7edbec	0.99554324
9	0x3f809f36	1.0048587
10	0x3f7d6c40	0.989933
11	0x3f7ec6b0	0.99521923
12	0x3f84d70f	1.0378131
13	0x3f7c0b1d	0.9845446
14	0x3f7df022	0.9919454
15	0x3f771417	0.9651503
16	0x3f8036cf	1.0016726
17	0x3f7bb65e	0.98325145
18	0x3f811954	1.0085855
19	0x3f801358	1.0005903
20	0x3f7c947b	0.98664063
21	0x3f81072f	1.0080317
22	0x3f7a0c8b	0.9767539
23	0x3f7f890b	0.99818486
24	0x3f83efb9	1.0307533
25	0x3f7b3731	0.9813109
26	0x3f7facd4	0.9987309
27	0x3f85f03c	1.0463939
28	0x3f7ad4e6	0.9798111
29	0x3f7b824c	0.9824569
30	0x3f82910d	1.0200516
31	0x3f80a139	1.0049201

bn1.bias f4 [32]
0	0x3d9fa06a	0.077942684
1	0xbceec3fb	-0.029146185
2	0xbd021d3d	-0.031766165
3	0x3d15dc1d	0.03658687
4	0x3d612022	0.054962285
5	0x39ae17a7	0.0003320549
6	0x3c94a883	0.018146759
7	0x3b42b242	0.00297083
8	0x3d106a1e	0.03525745
9	0xbb0b231b	-0.0021230641
10	0xbbe7a36f	-0.0070690433
11	0x3d3bf91e	0.045891874
12	0x3ca6d971	0.020367356
13	0x3d73a084	0.05947925
14	0xbc77246d	-0.015084368
15	0x3d8ba584	0.06818679
16	0xbd05a770	-0.032630384
17	0x3c98eafb	0.018666735
18	0x3d3abfa5	0.045592923
19	0xbd390ace	-0.04517632
20	0x3d0ac743	0.033881437
21	0xbc44ee6d	-0.012019736
22	0x3bea3f1a	0.0071486356
23	0x3ca0b191	0.01961592
24	0x3d3e99f5	0.046533544
25	0xbcc0a2b5	-0.023515085
26	0x3c6b464c	0.014360022
27	0x3d297ab3	0.04137678
28	0xbcf30d41	-0.029669406
29	0x3c1a5346	0.009419268
30	0x3d7c1f13	0.061553072
31	0xbd8291b7	-0.06375449

bn1.running_mean f4 [32]
0	0x3cd5c88a	0.026096601
1	0xbe889e99	-0.266835
2	0xbca68307	-0.02032615
3	0x3d780bc2	0.060558088
4	0x3df8a88a	0.12141521
5	0x3c50406e	0.012710674
6	0x3e13399b	0.14377443
7	0xbe4fead2	-0.2030442
8	0xbd8ba573	-0.06818666
9	0x3bec2132	0.0072061056
10	0xbd1cd537	-0.038289275
11	0x3e9268bc	0.2859553
12	0xbe55b9e2	-0.2087169
13	0xbdacad5e	-0.08431505
14	0x3dca439b	0.09876176
15	0xbe1aeedf	-0.15130185
16	0x3dc52713	0.096265934
17	0xbe622b85	-0.22086914
18	0xbe872009	-0.26391628
19	0xbe2c7ff7	-0.1684569
20	0xbda5a6d2	-0.08088459
21	0x3bb0b0d1	0.005392172
22	0xbd06200a	-0.0327454
23	0x3e53aa6b	0.20670478
24	0x3d6f3c21	0.058406953
25	0x3e2a8375	0.1665171
26	0x3e99335d	0.29922
27	0xbc2173f7	-0.009854308
28	0x3d92205f	0.071350805
29	0xbde4a310	-0.11163914
30	0xbe04f33d	-0.12983413
31	0x3e0a64e9	0.13515057

bn1.running_var f4 [32]
0	0x461957bd	9813.935
1	0x4675e901	15738.251
2	0x46063d9a	8591.4
3	0x46393ecf	11855.702
4	0x4635c9c3	11634.44
5	0x461fbc81	10223.126
6	0x4583bcc8	4215.5977
7	0x464ad1d8	12980.461
8	0x468fb86f	18396.217
9	0x46af5a63	22445.193
10	0x4620a9a2	10282.408
11	0x46330eb5	11459.677
12	0x463b5229	11988.54
13	0x45daec36	7005.5264
14	0x45f53f20	7847.8906
15	0x458ddadd	4539.358
16	0x46ba5199	23848.799
17	0x470ce933	36073.2
18	0x463650aa	11668.166
19	0x4616b379	9644.868
20	0x467d4276	16208.615
21	0x45dffeca	7167.8486
22	0x46574ae7	13778.726
23	0x46822c5c	16662.18
24	0x4654eb9c	13626.902
25	0x467eaa98	16298.648
26	0x463b2193	11976.394
27	0x457bd6f8	4029.4355
28	0x45039b10	2105.6914
29	0x460e9014	9124.02
30	0x463c890e	12066.264
31	0x46a12a5b	20629.178

conv2.weight f4 [64, 32, 3]
0	0xbab630e1	-0.0013900065
1	0x3b950243	0.0045473888
2	0xbd9ac224	-0.07556561
3	0x3bf1b5ce	0.007376409
4	0xbd50d312	-0.050982542
5	0xbacbd556	-0.001555125
6	0x3c868699	0.016421603
7	0xbda822b3	-0.08209743
8	0xbccace49	-0.024756568
9	0x3d36605c	0.04452549
10	0x3d4a87e9	0.04944602
11	0x3daa813e	0.08325432
12	0xbd038ab0	-0.032114685
13	0x3c6f6d98	0.0146135315
14	0x3cf0d6b2	0.02939925
15	0x3ce89358	0.028390571
16	0xbc0c0066	-0.008545017
17	0xbd8d7b2a	-0.06908257
18	0xbdafbf44	-0.08581403
19	0x3d181dc3	0.037137758
20	0x3d15d1db	0.036577087
21	0xbd6f4efb	-0.05842493
22	0xbd10e827	-0.035377648
23	0x3d82e948	0.06392151
24	0xbdb0d5b2	-0.08634509
25	0xbd696b5f	-0.056987163
26	0x3c70c335	0.0146949785
27	0xbcdcc176	-0.026947718
28	0xbdb106bd	-0.08643863
29	0xbd9c9f74	-0.07647601
30	0x3c016d46	0.007899588
31	0x3d0058e9	0.03133479
32	0xbd1075e5	-0.035268683
33	0x3dc13e9e	0.094357714
34	0xbcf87d0f	-0.03033307
35	0x3d5cea60	0.053934455
36	0xbd888ed9	-0.06667871
37	0xbda731cf	-0.08163797
38	0x3c48bc9a	0.012251997
39	0x3aa99307	0.0012937494
40	0x3d0cf8b9	0.034416888
41	0xbc9b46b8	-0.01895462
42	0x3ce9421e	0.02847391
43	0x3d8fe384	0.07025817
44	0x3dda5af9	0.10661883
45	0xbd6db366	-0.058032416
46	0xbd890e7f	-0.06692218
47	0xbdb20946	-0.08693175
48	0xbc21bb41	-0.009871305
49	0xbce10d4e	-0.027472164
50	0xbbea3b12	-0.007148155
51	0x3dbd78a9	0.0925153
52	0x3d890e0e	0.06692134
53	0x3cde8cdd	0.027166778
54	0xbdd53421	-0.104103334
55	0xbc495326	-0.012287891
56	0xbdfe86c1	-0.12428046
57	0x3da591c8	0.08084446
58	0xbda42a69	-0.080159016
59	0xbdecdc31	-0.11565436
60	0xbd1d9558	-0.038472503
61	0xbde5a706	-0.11213498
62	0x3d73cb7b	0.059520226
63	0x3d0ca975	0.034341294
64	0x3d9c0c8d	0.07619581
65	0x3be4b507	0.006979588
66	0xbd2e2ead	-0.042524982
67	0x3d612f67	0.054976847
68	0xbbc49cd7	-0.006000142
69	0x3dcb63ef	0.0993117
70	0xbd806b31	-0.06270445
71	0xbd83c48d	-0.064339735
72	0x3cddca3a	0.027073968
73	0x3dd5c5f3	0.104381464
74	0x3d1d03c3	0.038333666
75	0x3baeba31	0.0053322543
76	0xbdae8aad	-0.08522544
77	0x3ba19cb0	0.0049320087
78	0x3cf52470	0.029924601
79	0x3d902531	0.07038344
80	0x3dea76f3	0.11448469
81	0x3c019406	0.007908827
82	0xbdb95e26	-0.090511605
83	0x3d5dfae2	0.05419434
84	0xbb0fd374	-0.0021946104
85	0xbc44163f	-0.0119681945
86	0xbc3b04b0	-0.011414692
87	0xbd0369b8	-0.032083243
88	0xbd978f8f	-0.074004285
89	0x3c82c087	0.015960945
90	0x3c9f042e	0.019411173
91	0x3c7b2e9d	0.015330938
92	0xbdafa875	-0.085770525
93	0x3db4da06	0.08830647
94	0xbd636b50	-0.055522263
95	0xbd9132fc	-0.070898026
96	0xbd10b1fe	-0.035325997
97	0x3a193cbd	0.00058455375
98	0x3df9f821	0.1220553
99	0x3cd709ec	0.026249848
100	0x3db601d3	0.08887067
101	0x3dc12ecb	0.09432753
102	0x3d4b3f96	0.049621187
103	0xbd16bb62	-0.036799796
104	0xbc678089	-0.014129766
105	0x3dd815ef	0.105510585
106	0xbcd319ba	-0.025769103
107	0x3af08e80	0.0018353015
108	0xbb435b7e	-0.0029809172
109	0x3d5e8bba	0.054332472
110	0xbd896e13	-0.06710448
111	0x3d971764	0.07377508
112	0xbd8b3a5c	-0.067982405
113	0x3d0a6e44	0.033796564
114	0x3c03454d	0.008012128
115	0xbb59076f	-0.0033116003
116	0x3d0feba8	0.03513685
117	0x3da2b51f	0.07944702
118	0x3d52132c	0.051287815
119	0xbbbeb7c9	-0.0058202487
120	0x3d8e2c92	0.06942095
121	0xbd91b1a3	-0.0711396
122	0xbbda19d7	-0.0066559124
123	0xbdd405d9	-0.10352678
124	0xbda4260a	-0.08015068
125	0x3d9a35b0	0.07529771
126	0xbc8fb66e	-0.017543044
127	0x3dcbaa85	0.099446334
128	0xbd4d2846	-0.050087236
129	0x3d1c937f	0.0382266
130	0xbd5c24f5	-0.053746182
131	0xbd411d02	-0.047146805
132	0x3e025e6c	0.12731332
133	0xbb83f076	-0.004026468
134	0x3d7a6aac	0.061136886
135	0x3b4c8b83	0.0031211085
136	0xbd82fab8	-0.06395477
137	0x3d8958d5	0.067063965
138	0x3d55a5c5	0.052160043
139	0x3dca116c	0.09866604
140	0x3dc1cd13	0.09462943
141	0x3d868766	0.06568794
142	0x3d7bb18c	0.06144862
143	0xbbbf2d12	-0.00583423
144	0x3d971265	0.07376555
145	0xbd9da180	-0.07696819
146	0x3b7911bf	0.0038004962
147	0x3de103de	0.10987066
148	0xbd157347	-0.03648689
149	0x3e08abc8	0.1334678
150	0xbdc7e95a	-0.09761305
151	0xbd9e5f3c	-0.07733008
152	0x3c28003c	0.010253962
153	0xbdb29b61	-0.087210424
154	0x3d5ba795	0.053626616
155	0x3d9819d1	0.07426799
156	0xbdd4b325	-0.103857316
157	0x3d852707	0.065015845
158	0x3c0c6ac8	0.0085703805
159	0x3d0526f7	0.032507863
160	0xbcb3d909	-0.021954076
161	0x3c1a53bf	0.009419381
162	0x3d62ff5d	0.055419315
163	0x3cf540e9	0.029938178
164	0x3cfe5897	0.031048102
165	0x3cf386f1	0.029727431
166	0x3dd56293	0.10419192
167	0xbd306596	-0.04306563
168	0xbdd57ba1	-0.10423971
169	0x3d55beb5	0.052183826
170	0x3c95f261	0.018304052
171	0x3d1102be	0.035403006
172	0x3e1b3b4a	0.15159336
173	0xbd558810	-0.052131712
174	0xbd3a73ac	-0.04552047
175	0x3d76688e	0.060158305
176	0x3cb13d47	0.021635665
177	0x3d58c600	0.052923203
178	0x3d60e40e	0.05490499
179	0xbc8997a8	-0.016795948
180	0x3d788e21	0.06068242
181	0xbd670411	-0.056400362
182	0xbb76cf21	-0.003766008
183	0x3d06a36e	0.032870702
184	0xbc1392b3	-0.009007144
185	0x3d31263e	0.04324936
186	0x3c696729	0.014245787
187	0x3d86deeb	0.06585487
188	0xbd77ff74	-0.060546353
189	0x3d28fa30	0.041254222
190	0x3db37f14	0.087644726
191	0xbc798e2c	-0.01523165
192	0xbc62b553	-0.013837176
193	0x3dd3f638	0.10349697
194	0x3dd1889a	0.10231133
195	0x3d87c893	0.06630053
196	0xbd8fd45d	-0.07022927
197	0x3dc04a85	0.093892135
198	0xbccc08dd	-0.02490657
199	0xbd336db0	-0.043805778
200	0x3d4013ba	0.046893813
201	0xbcaa46f7	-0.020785792
202	0xbb9f1814	-0.0048551653
203	0xbd1c97d1	-0.03823072
204	0x3daf9087	0.08572488
205	0x3d990f49	0.074736185
206	0x3d8472a8	0.064671814
207	0xbdd51341	-0.10404063
208	0xbe05eb11	-0.13077952
209	0x3d3a39b4	0.045465186
210	0x3d4c9d3d	0.04995464
211	0x3ccdb414	0.025110282
212	0x3dda36d7	0.10654991
213	0xbc2ac434	-0.010422755
214	0xbd8370ac	-0.06417975
215	0xbdb63dc2	-0.08898498
216	0xbd843dc9	-0.06457097
217	0x3d7ae3fd	0.061252583
218	0x3d41498c	0.04718928
219	0xbc9b87ae	-0.018985596
220	0xbd310ea4	-0.043226853
221	0x3ca4932c	0.020089708
222	0x3ba4ff30	0.0050353035
223	0xbd1145bd	-0.0354669
224	0x3d83b6c4	0.06431344
225	0x3d3a7ed1	0.045531098
226	0xbd87ef06	-0.06637387
227	0xbde8ec04	-0.113731414
228	0x3d46b4e8	0.04851237
229	0x3ca33625	0.019923279
230	0x3d429af0	0.04751104
231	0xbd2d6e2d	-0.0423414
232	0xbb312e33	-0.0027035594
233	0x3cbc3dcb	0.022978684
234	0x3d01d854	0.031700447
235	0xbca2b39e	-0.019861039
236	0xbd93a952	-0.0721003
237	0xbcc95c4b	-0.024580142
238	0xbc59f8d4	-0.013303954
239	0xbb8388ee	-0.004014126
240	0x3dc09ecf	0.0940529
241	0xbd304339	-0.04303286
242	0xbd480ebe	-0.048842184
243	0x3ba9b88c	0.0051794704
244	0x3c3822be	0.011238752
245	0x3d219ac6	0.039454244
246	0xbd2f79f3	-0.04284091
247	0x3dd09e6e	0.10186468
248	0x3bf8bfbf	0.0075912173
249	0x3cf8b86f	0.030361382
250	0xbbc01fcf	-0.005863167
251	0x3d81ed23	0.06344058
252	0x3d08f520	0.033436894
253	0x3d4e67e3	0.050392043
254	0xbd86f996	-0.065905735
255	0xbd8783a5	-0.06616906

conv2.bias f4 [64]
0	0x3c3336aa	0.010938326
1	0xbd77ec39	-0.060528014
2	0x3db30e6a	0.08742984
3	0x3c64936e	0.013951166
4	0xbd9dd682	-0.0770693
5	0x3cf7c3c7	0.030244721
6	0x3d4fdd1c	0.050747976
7	0xbd516974	-0.05112596
8	0xbb7d7bdc	-0.0038678562
9	0xbdc0151c	-0.09379026
10	0xbc17dd4e	-0.009269072
11	0xbd865201	-0.0655861
12	0x3dac66ac	0.084180206
13	0xbdafff1e	-0.085935816
14	0xbd9d96b8	-0.07694763
15	0xbd24e7fd	-0.040260304
16	0xbdbbd899	-0.09172172
17	0xbb12f2db	-0.0022422585
18	0xbda31e7f	-0.07964801
19	0x3dc98606	0.09840016
20	0x3db42d17	0.08797663
21	0x3d4b4818	0.0496293
22	0xbd53fc88	-0.051754504
23	0x3d515123	0.05110277
24	0x3dbc9ace	0.09209214
25	0xbd88f0f3	-0.066865824
26	0xbd303ed2	-0.04302866
27	0x3d63666f	0.05551761
28	0x3d686d54	0.05674489
29	0xbd0d24b4	-0.03445883
30	0xbda5114a	-0.08059938
31	0xbda9cd91	-0.08291162
32	0x3d86ee61	0.06588436
33	0x3aba669d	0.0014221255
34	0x3d490f99	0.04908714
35	0xbd4360f3	-0.04769988
36	0xbc30906c	-0.01077662
37	0x3c9f10cb	0.019417187
38	0xbdc6ee80	-0.09713459
39	0xbd2c8e76	-0.04212805
40	0x3d14b2fa	0.036303498
41	0x3cd14149	0.025543826
42	0x3d1a339f	0.037646886
43	0x3daf22d3	0.08551564
44	0xbc5fda17	-0.0136628365
45	0x3d5f502a	0.05451981
46	0xbccb26dc	-0.024798803
47	0x3b848c82	0.00404507
48	0x3db9d9ab	0.0907472
49	0x3d70b24b	0.058763783
50	0x3d8a372d	0.06748805
51	0x3c2cc5d7	0.010545216
52	0x3d02813c	0.03186153
53	0xbd9aba9d	-0.07555125
54	0x3d1a7225	0.037706513
55	0x3d54266b	0.05179445
56	0x3d71a656	0.05899652
57	0xbd145049	-0.03620938
58	0x3dcf8aee	0.101339206
59	0xbc0369c6	-0.008020824
60	0xbdb2bd0f	-0.08727466
61	0xbd9169f2	-0.071002856
62	0x3cceff55	0.025268236
63	0x3d8c8b9c	0.06862566

bn2.weight f4 [64]
0	0x3f814a8f	1.0100878
1	0x3f6b9df7	0.9203791
2	0x3f7f7566	0.9978851
3	0x3f7a58d6	0.977918
4	0x3f83ad88	1.0287333
5	0x3f7d8456	0.99030054
6	0x3f7e410c	0.99318004
7	0x3f76730b	0.9626929
8	0x3f7dfc73	0.9921333
9	0x3f822979	1.0168906
10	0x3f852a86	1.0403602
11	0x3f8017ad	1.0007225
12	0x3f7b025c	0.98050475
13	0x3f7e251a	0.9927536
14	0x3f7d9387	0.99053234
15	0x3f7c8f8e	0.9865655
16	0x3f7e4a47	0.9933209
17	0x3f814fee	1.0102518
18	0x3f797738	0.9744754
19	0x3f7dfbc1	0.9921227
20	0x3f88404e	1.0644624
21	0x3f8033d6	1.0015819
22	0x3f7ecf58	0.9953513
23	0x3f822102	1.0166323
24	0x3f849d27	1.0360459
25	0x3f82fde5	1.0233732
26	0x3f7c286a	0.98499167
27	0x3f7d90cd	0.99049073
28	0x3f7b2a0b	0.9811103
29	0x3f820c67	1.0160035
30	0x3f8468b4	1.0344453
31	0x3f823ad7	1.0174206
32	0x3f7fbf73	0.99901503
33	0x3f872077	1.0556782
34	0x3f78d654	0.9720204
35	0x3f83df86	1.0302589
36	0x3f76e70f	0.9644632
37	0x3f79d9b0	0.9759779
38	0x3f741147	0.95338863
39	0x3f80e3f8	1.006957
40	0x3f7c88dd	0.98646337
41	0x3f7fade0	0.9987469
42	0x3f7edb12	0.99553025
43	0x3f80fe10	1.0077534
44	0x3f847c4d	1.0350434
45	0x3f81acb8	1.0130835
46	0x3f7e3b3e	0.99309146
47	0x3f82615b	1.018596
48	0x3f807701	1.0036317
49	0x3f7725cb	0.9654204
50	0x3f779508	0.9671178
51	0x3f859c34	1.0438294
52	0x3f6f970c	0.93589854
53	0x3f8642d9	1.048915
54	0x3f8223dc	1.0167193
55	0x3f80626d	1.0030037
56	0x3f8185d3	1.0118965
57	0x3f800541	1.0001603
58	0x3f7fcf71	0.99925905
59	0x3f8182df	1.0118064
60	0x3f82940a	1.0201428
61	0x3f83f916	1.031039
62	0x3f7ce4a1	0.9878636
63	0x3f843f7b	1.0331873

bn2.bias f4 [64]
0	0xbd1a48fa	-0.037667252
1	0xbd25540a	-0.04036335
2	0xbc2cbb35	-0.0105426805
3	0x3b5294db	0.0032132182
4	0xbce60eb0	-0.028083175
5	0xbb7c0292	-0.003845368
6	0x3cc61bb2	0.024183128
7	0xbd0dd222	-0.034624226
8	0xbd65f3c9	-0.056140695
9	0xbca154e4	-0.0196938
10	0xbc73a5a4	-0.014871035
11	0xbae22280	-0.0017252713
12	0xbd30c48d	-0.043156195
13	0xbd585620	-0.05281651
14	0xbd6e091d	-0.05811416
15	0x3c1a33f6	0.0094118025
16	0x3c7bad7b	0.015361185
17	0x3c387a13	0.0112595735
18	0x3cb80442	0.022462968
19	0xbd5fce89	-0.054640327
20	0xbcc771fe	-0.024346348
21	0xbd1b5d2b	-0.03793065
22	0xbca195ed	-0.01972481
23	0xbcf1bb1f	-0.029508172
24	0xbd10e50f	-0.035374697
25	0x3c75e335	0.015007784
26	0xbd9dc79d	-0.07704089
27	0xbc9ee44a	-0.019395966
28	0xbccf58c9	-0.02531089
29	0xbd6ebda9	-0.058286343
30	0xbd21e5a1	-0.03952563
31	0x3d360c29	0.04444519
32	0x3ca0a2ec	0.019608937
33	0x3c604422	0.013688119
34	0xbcb40f6c	-0.02198001
35	0xbc706ae3	-0.014673921
36	0x3cd003a2	0.025392357
37	0xbd220df2	-0.03956408
38	0xbdb87f97	-0.09008711
39	0xbd0c1129	-0.034196053
40	0x3b6774ef	0.00353175
41	0xbc3cbd74	-0.0115197785
42	0x3c047881	0.008085371
43	0xbcc451b5	-0.023964742
44	0xba06210f	-0.00051166205
45	0x3d0404d2	0.03223116
46	0xbc10218e	-0.008797063
47	0xbcc49c0f	-0.024000196
48	0xbd0206d5	-0.031744797
49	0xbcbf9933	-0.02338848
50	0xbc04b9b5	-0.008100917
51	0xbca7f060	-0.020500362
52	0xbd63b730	-0.055594623
53	0x3d9b8814	0.07594314
54	0xbcdb2300	-0.026750088
55	0x3d0c4d77	0.034253564
56	0x3c1d0a31	0.009584949
57	0x3c6d57df	0.014486282
58	0xbc55d3b5	-0.013050963
59	0xbc5fefd2	-0.013668017
60	0x3a973889	0.0011537235
61	0xbcb2d9e7	-0.02183242
62	0xbd233b73	-0.039851617
63	0x376b2b87	1.4017226e-05

bn2.running_mean f4 [64]
0	0xbe312952	-0.17300919
1	0x3efd5dd0	0.49485636
2	0x3d96f391	0.07370675
3	0x3f009f99	0.50243527
4	0xbea207b9	-0.31646517
5	0xbec145ea	-0.37748653
6	0xbe0187e2	-0.12649491
7	0xbc102892	-0.008798735
8	0x3e9e4ff6	0.3092038
9	0xbf0ba9c6	-0.5455593
10	0xbeb85f53	-0.36010227
11	0xbed74172	-0.42042118
12	0xbddb1709	-0.10697753
13	0x3d3bc1c6	0.045839094
14	0xbd016902	-0.031594284
15	0xbdedd526	-0.116129205
16	0xbe96fe7b	-0.29491028
17	0xbe78951a	-0.24275628
18	0xbcef510f	-0.029213456
19	0xbc1d37d8	-0.009595834
20	0xbe80c1d9	-0.25147894
21	0xbe18b6c6	-0.14913473
22	0xbea9970d	-0.33123055
23	0xbeb145d2	-0.3462358
24	0xbe460b72	-0.19340304
25	0xbf2afced	-0.66792184
26	0xbd443966	-0.047906302
27	0xbd0995dc	-0.033590183
28	0x3eacd183	0.33753595
29	0xbe1818af	-0.14853166
30	0xbeb83e6f	-0.35985133
31	0xbecdd6c2	-0.4020291
32	0xbe6e5534	-0.2327469
33	0xbf01a600	-0.5064392
34	0x3d1fcc35	0.039013106
35	0xbe9c9526	-0.3058254
36	0x3ed2742e	0.41104263
37	0x3cacb15e	0.021080669
38	0x3f0a969f	0.5413608
39	0x3bbe25dd	0.0058028535
40	0xbdd8a219	-0.10577793
41	0x3e129876	0.14315972
42	0xbeac816e	-0.33692497
43	0xbe33fa02	-0.17575839
44	0xbd9b746f	-0.07590567
45	0xbe929d59	-0.28635672
46	0xbea20a25	-0.31648365
47	0xbf0b0b8e	-0.54314506
48	0xbd931196	-0.071810886
49	0x3e4150a6	0.18878421
50	0x3e124c92	0.14287022
51	0xbec81efd	-0.39086142
52	0x3ee0e801	0.43927005
53	0xbe94941f	-0.29019257
54	0xbe839051	-0.25696042
55	0xbd498d06	-0.049206756
56	0xbe819961	-0.2531233
57	0xbe8e0d5d	-0.2774457
58	0xbe168344	-0.14698511
59	0xbe99a337	-0.30007336
60	0xbe960c07	-0.2930605
61	0xbeb46aec	-0.35237825
62	0xbdc79722	-0.09745623
63	0xbe7e7d58	-0.24852502

bn2.running_var f4 [64]
0	0x3e8a225b	0.26979336
1	0x3ec510e9	0.38489464
2	0x3e082e2a	0.1329886
3	0x3eac546e	0.33658165
4	0x3e8a670c	0.27031744
5	0x3e9aca86	0.30232638
6	0x3e3a4890	0.18191743
7	0x3e1e9a31	0.15488507
8	0x3e3cdfc4	0.18444735
9	0x3ec9191d	0.39276972
10	0x3e1a43b9	0.15064897
11	0x3eaf2594	0.34208357
12	0x3e90943a	0.28238088
13	0x3e0529d7	0.13004242
14	0x3e010be9	0.126022
15	0x3de6f80b	0.11277779
16	0x3e18067d	0.14846225
17	0x3e72f79a	0.23727265
18	0x3e2bc1c3	0.16773133
19	0x3e1953a6	0.14973316
20	0x3e314f1e	0.17315337
21	0x3e3a8162	0.18213418
22	0x3e912005	0.2834474
23	0x3e2980c5	0.16553028
24	0x3e163018	0.14666784
25	0x3f1206c0	0.5704155
26	0x3dd92511	0.10602773
27	0x3d838948	0.06422669
28	0x3ddd4797	0.1080467
29	0x3e628f87	0.22125064
30	0x3e29288f	0.16519378
31	0x3e564d8a	0.20928016
32	0x3e9ab27d	0.302143
33	0x3eafcf33	0.34337768
34	0x3e3c98c1	0.18417646
35	0x3d9b141a	0.075721934
36	0x3ec89b10	0.39180803
37	0x3e721c90	0.23643708
38	0x3efad032	0.48986965
39	0x3ddf04d4	0.10889593
40	0x3e5ac74f	0.21365093
41	0x3e0b833c	0.1362428
42	0x3e755a76	0.2396029
43	0x3e173571	0.1476648
44	0x3dd3a2fc	0.10333821
45	0x3e8a1087	0.26965734
46	0x3e5be8e3	0.21475558
47	0x3ea5402f	0.3227553
48	0x3e21e436	0.15809712
49	0x3ea40239	0.32032946
50	0x3df0fa07	0.11766439
51	0x3eaf42df	0.34230706
52	0x3e967202	0.29383856
53	0x3df8c2ad	0.121465065
54	0x3e917029	0.28405884
55	0x3e1345ba	0.14382067
56	0x3e6741f1	0.22583748
57	0x3e618b35	0.2202576
58	0x3e29dcf2	0.1658819
59	0x3e613f4f	0.21996807
60	0x3e40ab54	0.18815356
61	0x3e5cd6f4	0.21566373
62	0x3df15128	0.117830575
63	0x3e58cc40	0.21171665

conv3.weight f4 [128, 64, 3]
0	0xbd6f2d07	-0.05839255
1	0xbc4e142a	-0.01257805
2	0x3d8ab8d9	0.06773538
3	0x3d6a8a43	0.057260763
4	0xbd6e98c4	-0.058251157
5	0x3c41332b	0.011791985
6	0x3cb15abc	0.02164971
7	0x3c446a35	0.011988212
8	0x3c763d9a	0.015029335
9	0xbd89acbb	-0.06722399
10	0xbd306e0d	-0.043073703
11	0x3bd72920	0.006566182
12	0xbc333397	-0.010937593
13	0x3c77d1d6	0.015125712
14	0xbd21af2c	-0.039473698
15	0x3cc46f61	0.02397889
16	0xbd5fb01b	-0.054611307
17	0xbd8f2277	-0.069889955
18	0xbd7d80d5	-0.061890442
19	0x3d1ee7c1	0.038795236
20	0x3c75e10a	0.015007267
21	0x3d0e9aad	0.03481548
22	0xbcb59672	-0.022166464
23	0x3d3a85a3	0.045537602
24	0xbd3ab62b	-0.045583885
25	0xbd3a269f	-0.04544699
26	0x3d4877fc	0.04894255
27	0x3d57356a	0.052541174
28	0xbcf027ea	-0.029315908
29	0x3a194ed4	0.0005848233
30	0x3ce27ff9	0.027648913
31	0x3c91eea8	0.017813995
32	0x3d37c1eb	0.04486267
33	0xbce3c0d2	-0.027801905
34	0xbce9adda	-0.028525282
35	0xbbacec51	-0.0052771945
36	0x3d6dfb31	0.058100883
37	0x3d59b6ba	0.053152777
38	0x3cb18220	0.021668494
39	0x3d129f86	0.035796665
40	0xbdb20f3c	-0.08694312
41	0x3d376bb8	0.044780463
42	0x3d3f4c40	0.046703577
43	0xba23d071	-0.0006249017
44	0x3d116f92	0.035506792
45	0x3cafda09	0.021466272
46	0x3d824a11	0.06361783
47	0xbcb8e348	-0.022569314
48	0x3d6e0a03	0.058115017
49	0x3d192358	0.037387222
50	0xbd1451e4	-0.03621091
51	0x3dae1bb3	0.08501377
52	0xbc1676d3	-0.009183603
53	0x3c4c3c65	0.012465571
54	0x3c601e74	0.013679136
55	0xbca8ea66	-0.020619582
56	0xbd8559d2	-0.065112725
57	0x3c46e612	0.012139814
58	0x3bce3004	0.006292345
59	0x3d09752d	0.033559013
60	0x3d8d2f19	0.06893749
61	0xbd2a16f9	-0.041525815
62	0x3c9f73b9	0.01946436
63	0x3a2a11f1	0.0006487659
64	0xbc12de46	-0.008964127
65	0x3bcc4960	0.006234333
66	0xbd4f5bd9	-0.050624702
67	0x3d04b22b	0.032396477
68	0xbd20eecf	-0.039290246
69	0x3cf8c4d1	0.030367287
70	0x3d67df6c	0.056609556
71	0xbd0bf946	-0.034173273
72	0x3d6dcc30	0.058056056
73	0xbcec055c	-0.02881115
74	0x3d82240a	0.0635453
75	0xbb43e6b2	-0.0029892144
76	0x3c69a6f2	0.014260994
77	0x3cdac98a	0.02670743
78	0xbd49874e	-0.049201302
79	0x3d13be62	0.036070235
80	0x3c5d552b	0.013509075
81	0xbd585bba	-0.052821852
82	0x3caea498	0.021318719
83	0x3c0c82a0	0.008576065
84	0x3d74c712	0.05976016
85	0x3d2a97e4	0.04164876
86	0xbc15ab1c	-0.009135034
87	0x3cbbb777	0.022914631
88	0x3d08d24e	0.033403687
89	0x3cc62b2f	0.024190513
90	0xbd2282fe	-0.039675705
91	0xbc2fe2cd	-0.010735226
92	0x3d238b1b	0.039927583
93	0x3d40b87a	0.04705093
94	0xbbe5d7c3	-0.007014246
95	0xbd1c27b5	-0.038123805
96	0xbd31316e	-0.04326003
97	0xbcce5632	-0.025187586
98	0x3d62bd65	0.055356402
99	0xbdddaaff	-0.108236305
100	0xbdaeef03	-0.085416816
101	0xbd41b3b2	-0.04729051
102	0x3caab9d9	0.020840572
103	0x3cf7737f	0.03020644
104	0x3d078cea	0.03309337
105	0x3d730b00	0.059336662
106	0x3d2921b6	0.041291915
107	0xbce513ef	-0.027963607
108	0xbc30a3b8	-0.010781221
109	0x3d256cf2	0.0403871
110	0xbcec1b6b	-0.028821668
111	0x3d58c432	0.05292148
112	0x3cfbfd6d	0.030760491
113	0xbc5895aa	-0.013219276
114	0xbc1e1777	-0.009649149
115	0xbd8b6c91	-0.06807817
116	0x3d61bfa3	0.0551144
117	0xbdb26e24	-0.08712414
118	0xbc1a4004	-0.009414677
119	0x3d255b01	0.04036999
120	0x3c322da7	0.010875142
121	0x3ccbd648	0.02488245
122	0x3c63f2f4	0.013912905
123	0x3b706907	0.0036683695
124	0xbd107280	-0.035265446
125	0xbd1adbc0	-0.037807226
126	0xbda6841f	-0.08130669
127	0xbdab319f	-0.08359074
128	0xbd4998a3	-0.04921783
129	0xbd5fbfe1	-0.05462635
130	0xbcbf9ce6	-0.023390245
131	0xbd012860	-0.031532645
132	0x3d2e66ae	0.04257839
133	0x3c1108c2	0.008852186
134	0x3c9987d0	0.018741518
135	0x3c464fad	0.012103957
136	0x3d28147e	0.041035168
137	0x3c55cfb4	0.013050009
138	0x3cbf7261	0.02336997
139	0xbd2fd88a	-0.042931117
140	0x3d5f3eea	0.05450336
141	0xbd2b8b53	-0.041880917
142	0x3d2e565c	0.042562827
143	0x3c9ee01c	0.019393973
144	0x3d9fe5ce	0.07807504
145	0xbd2fa042	-0.042877443
146	0xbd292637	-0.04129621
147	0x3cdd4fb1	0.027015539
148	0xbcf04bd7	-0.029333038
149	0xbd4b0a65	-0.04957046
150	0x3d213a01	0.039361957
151	0x3d109a57	0.03530344
152	0xbd9358da	-0.071946815
153	0x3d9476b2	0.07249202
154	0x3d0ed0a6	0.03486695
155	0x3cc28797	0.023746295
156	0xbd9ca3b4	-0.076484114
157	0x3d762b1d	0.06009971
158	0x3d1ccfc0	0.038284063
159	0x3c782793	0.015146154
160	0x3ca0d5e5	0.019633243
161	0xbd2e2976	-0.04252001
162	0xbd87e979	-0.06636328
163	0xbd50c47c	-0.050968632
164	0xbc3d99e2	-0.011572333
165	0xbd2eefee	-0.042709284
166	0x3cc2b7ad	0.023769224
167	0x3d63d98f	0.055627402
168	0x3cf3d309	0.029763715
169	0xbc44d65f	-0.012014001
170	0x39ec631d	0.00045087273
171	0xbd248b67	-0.040172007
172	0x3c37276e	0.011178834
173	0xbd5ec272	-0.054384656
174	0x3cf336cd	0.029689217
175	0x3cb65896	0.022259038
176	0xbd8bf8b8	-0.06834549
177	0x3c70e1ab	0.014702241
178	0xbdaba5fc	-0.083812684
179	0x3d0480d0	0.032349408
180	0xbd03320a	-0.032030143
181	0x3d572f46	0.052535318
182	0xbbc2c2d7	-0.005943637
183	0x3d842319	0.06452007
184	0xbd3d3526	-0.046193264
185	0xbd53c3f0	-0.051700532
186	0xbd364612	-0.044500418
187	0x3c27d619	0.010243916
188	0x3b936c33	0.0044989823
189	0xbd98f7bd	-0.07469127
190	0xbccc0d9a	-0.02490883
191	0x3cd46e52	0.025931511
192	0xbd8987f4	-0.06715384
193	0xbd584014	-0.052795485
194	0xbd40af3f	-0.047042128
195	0xbcee54b6	-0.029093128
196	0x3d491e4b	0.049101155
197	0x3cb63c0f	0.022245435
198	0x3c9f180e	0.01942065
199	0x3d524fe8	0.051345736
200	0xbd8e0f2f	-0.0693649
201	0x3d174bb7	0.03693744
202	0x3bac20ca	0.005252932
203	0x3c9446b1	0.018100115
204	0x3d893df2	0.06701268
205	0x3c33df5f	0.010978549
206	0xbd12edbf	-0.035871264
207	0xbcd459c5	-0.025921712
208	0xbd261b36	-0.040553294
209	0x3d3d4c4c	0.04621534
210	0xbd8f92cd	-0.07010422
211	0xbdb144eb	-0.08655723
212	0xbd3e5b9a	-0.046474077
213	0x3c9e7933	0.019344902
214	0xbd7e007e	-0.062012188
215	0xbd1c05b9	-0.038091395
216	0xbb9a37f2	-0.004706376
217	0xbdb38f69	-0.08767588
218	0xbb098063	-0.0020981065
219	0xbd6502ee	-0.055910997
220	0x3cc9f24d	0.02465167
221	0xbd844aa1	-0.06459547
222	0xbd18863f	-0.037237402
223	0x3d91dab1	0.0712179
224	0xbb18f337	-0.0023338327
225	0xbb8000c8	-0.003906343
226	0x3cb6edf5	0.022330264
227	0x3d745cd4	0.05965884
228	0x3c8319a9	0.016003447
229	0x3c967bcd	0.01836958
230	0xbd2d1d09	-0.04226402
231	0xbdb9d9d9	-0.09074754
232	0xbc816254	-0.015793957
233	0xbc5f33f7	-0.013623229
234	0xbd531816	-0.051536642
235	0x3ceb28ed	0.028706038
236	0x3d426a1d	0.04746448
237	0xbd5f9c69	-0.054592524
238	0xbd735cdc	-0.05941473
239	0x3ce04655	0.027377287
240	0xbbe1cf64	-0.006891178
241	0xbd2e30e6	-0.042527102
242	0x3cf0b472	0.029382918
243	0xbb943e49	-0.0045240265
244	0xbca9ebd5	-0.020742336
245	0x3af6f0c1	0.0018840061
246	0x3cf1a01f	0.029495297
247	0x3d2882c4	0.041140333
248	0x3a70df50	0.00091885496
249	0xbb51cbde	-0.0032012383
250	0xbc921a3f	-0.01783478
251	0x3cbca553	0.023028051
252	0xbdb97880	-0.09056187
253	0x3ca092e0	0.019601285
254	0xbc27440c	-0.010209095
255	0xbd1f3858	-0.038872093

conv3.bias f4 [128]
0	0x3c224562	0.009904237
1	0x3b20f1ed	0.0024558262
2	0xbd7c1b51	-0.06154949
3	0x3c954b45	0.018224368
4	0xbd1a14cf	-0.0376175
5	0xbd47ee14	-0.048811033
6	0xbd8e55ee	-0.069499835
7	0xbca2e9f4	-0.019886948
8	0xbd618311	-0.055056635
9	0x3b93170c	0.0044888314
10	0x3d9f1ce1	0.0776918
11	0xbd558c9a	-0.05213604
12	0xbd8def5a	-0.06930418
13	0x3d5c6cc1	0.053814653
14	0xbd442443	-0.047886144
15	0x3d8311f0	0.06399906
16	0x3d795d14	0.06087978
17	0xbcb5b9d3	-0.022183334
18	0x3d6782f3	0.056521367
19	0x3cc9e4f7	0.024645312
20	0xbd21d777	-0.039512124
21	0xbd31b286	-0.043383144
22	0x3ca562e8	0.020188764
23	0xbd280ce9	-0.041027937
24	0xbd06c8ed	-0.03290646
25	0xbd5ae781	-0.053443436
26	0x3c6a331a	0.01429441
27	0x3d905bd9	0.070487686
28	0x3cfbc50d	0.03073361
29	0x3d1fc766	0.03900852
30	0x3d3e8b59	0.04651961
31	0xbcf68e1b	-0.030097058
32	0x3d5ef9d2	0.054437466
33	0x3c48544d	0.01222713
34	0x3c362cd3	0.011119085
35	0x3bb05997	0.0053817737
36	0xbd84d0e8	-0.06485158
37	0xbcccdcd9	-0.025007652
38	0x3d73a009	0.059478793
39	0xbcceb659	-0.025233435
40	0xbd3b340f	-0.045703944
41	0x3b5c1f5d	0.003358803
42	0xbb991173	-0.0046712696
43	0xbd009f5e	-0.031401984
44	0xbd5ebcc0	-0.054379225
45	0x3c8ff647	0.017573489
46	0xbd0d36e8	-0.03447619
47	0xbd64bf53	-0.055846523
48	0xbd57973d	-0.052634466
49	0x3d10d4bc	0.03535913
50	0x3d9023fa	0.07038112
51	0xbcf1755a	-0.029474903
52	0x3d31e444	0.04343058
53	0xbd63673c	-0.055518374
54	0xbd7ae0cd	-0.061249543
55	0x3cb925e5	0.022601077
56	0xbd3335be	-0.043752424
57	0xbc837683	-0.016047722
58	0x3ca8860f	0.020571737
59	0x3ce68e28	0.028143957
60	0x3d52a409	0.051425967
61	0x3d1af2f0	0.03782934
62	0xb9ad761e	-0.00033085136
63	0xbd413c49	-0.047176633
64	0x3d83965a	0.06425162
65	0x3d622af7	0.055216756
66	0xbc8ee80b	-0.017444631
67	0xbd3d3f1f	-0.046202775
68	0x3d656ef0	0.056014
69	0xbd3fcf89	-0.04682878
70	0xbd3935d3	-0.045217346
71	0x3d3f106f	0.04664653
72	0x3ccdcafe	0.025121208
73	0xbb682d9b	-0.0035427574
74	0x3cd8b0ce	0.026451495
75	0x3cf89406	0.03034402
76	0xbd04da9f	-0.032435056
77	0x3d336aff	0.04380321
78	0xbd56800f	-0.05236822
79	0x3d9218b3	0.07133617
80	0xbc822454	-0.015886463
81	0xbd97af2a	-0.07406457
82	0x3cdc4bdf	0.026891647
83	0x3ce7a61b	0.028277447
84	0xbc3c80e8	-0.011505343
85	0x3d99829a	0.074956134
86	0x3d8560bd	0.06512592
87	0x3d4cc19b	0.049989324
88	0x3d8cc220	0.06872964
89	0xbd12de09	-0.03585628
90	0xbd1651ae	-0.03669899
91	0x3b842020	0.00403215
92	0x3ce73c42	0.028226975
93	0x3b909b06	0.0044130115
94	0x3d1daf45	0.03849723
95	0x3d09b0ea	0.033615984
96	0xbd5433b7	-0.05180713
97	0xbc6852a0	-0.014179856
98	0xbbe9f410	-0.00713969
99	0xbd567ed4	-0.052367046
100	0xbd2349b9	-0.03986523
101	0xb90fb7d6	-0.00013706027
102	0x3d17c42d	0.037052322
103	0xbd50d89d	-0.05098783
104	0x3d74d001	0.05976868
105	0x3d2b5a03	0.04183389
106	0x3d92e6d0	0.0717293
107	0x3d64269e	0.05570089
108	0xbc31dd21	-0.010855944
109	0xbc58b7d9	-0.013227426
110	0xbc9df2ac	-0.019280754
111	0xbd5b3a71	-0.05352253
112	0x3d1b321a	0.037889577
113	0x3c82ef08	0.01598312
114	0x3d99f9e3	0.07518365
115	0x3cfe9f47	0.031081809
116	0xbd1a9922	-0.037743695
117	0x3d8b1f60	0.06793094
118	0x3d9c39f8	0.07628244
119	0x3d20394b	0.03911714
120	0xbd95af62	-0.07308842
121	0xbcc36ebd	-0.023856515
122	0x3c808620	0.015688956
123	0x3cb75988	0.022381559
124	0x3d8fd57f	0.07023143
125	0x3d133f35	0.03594895
126	0x3d73ab56	0.05948957
127	0x3d259cd0	0.04043275

bn3.weight f4 [128]
0	0x3f85df6a	1.0458806
1	0x3f831d8c	1.0243392
2	0x3f84da18	1.0379057
3	0x3f80aeb0	1.005331
4	0x3f831432	1.0240538
5	0x3f835c84	1.0262609
6	0x3f8344b3	1.025534
7	0x3f82358e	1.0172594
8	0x3f83d4a4	1.0299268
9	0x3f83a5aa	1.0284932
10	0x3f85e6ae	1.0461023
11	0x3f84a867	1.0363892
12	0x3f828eae	1.0199792
13	0x3f870004	1.054688
14	0x3f7f1bc6	0.99651754
15	0x3f837e31	1.0272886
16	0x3f851dbe	1.0399702
17	0x3f843bcf	1.0330752
18	0x3f82648e	1.0186937
19	0x3f83fd17	1.0311612
20	0x3f80e6de	1.0070455
21	0x3f811a96	1.0086238
22	0x3f85d7f0	1.0456524
23	0x3f7d174f	0.9886369
24	0x3f82fae4	1.0232816
25	0x3f8400e7	1.0312775
26	0x3f809695	1.0045954
27	0x3f8708d2	1.0549567
28	0x3f7e964f	0.994481
29	0x3f85b877	1.0446919
30	0x3f8049f3	1.0022568
31	0x3f8573bf	1.0425948
32	0x3f840151	1.0312902
33	0x3f82d50c	1.0221267
34	0x3f830945	1.0237204
35	0x3f83a4db	1.0284685
36	0x3f7971a4	0.97439027
37	0x3f84c260	1.0371819
38	0x3f83b493	1.0289482
39	0x3f81489a	1.0100281
40	0x3f8349b6	1.025687
41	0x3f85fd6e	1.0467966
42	0x3f7e1152	0.9924518
43	0x3f85bde1	1.0448571
44	0x3f82e4b8	1.022605
45	0x3f8392d1	1.027918
46	0x3f84debb	1.0380472
47	0x3f829717	1.0202359
48	0x3f7dd90f	0.9915933
49	0x3f843edc	1.0331683
50	0x3f843129	1.0327502
51	0x3f7ecc7b	0.9953076
52	0x3f835325	1.0259749
53	0x3f832d95	1.0248286
54	0x3f7cd316	0.9875959
55	0x3f809dc2	1.0048144
56	0x3f83a626	1.028508
57	0x3f8354b0	1.026022
58	0x3f864ccd	1.0492188
59	0x3f848675	1.0353533
60	0x3f813d05	1.0096747
61	0x3f8857d6	1.0651805
62	0x3f82f5ec	1.0231299
63	0x3f82cbf9	1.0218498
64	0x3f8069ef	1.0032328
65	0x3f836371	1.0264722
66	0x3f86a0b9	1.0517799
67	0x3f851243	1.0396198
68	0x3f84867b	1.035354
69	0x3f823f8a	1.017564
70	0x3f842599	1.0323974
71	0x3f841279	1.0318137
72	0x3f84383a	1.0329659
73	0x3f794519	0.9737106
74	0x3f8225ce	1.0167787
75	0x3f80ae8a	1.0053265
76	0x3f7f09c6	0.9962429
77	0x3f81c873	1.0139297
78	0x3f828206	1.019593
79	0x3f7e4bf9	0.99334675
80	0x3f817fc0	1.0117111
81	0x3f84fa1c	1.0388827
82	0x3f7ca4a3	0.98688716
83	0x3f83a4d6	1.0284679
84	0x3f850db9	1.0394813
85	0x3f8333d9	1.0250198
86	0x3f840842	1.031502
87	0x3f85c1c7	1.0449761
88	0x3f81bd2c	1.0135856
89	0x3f835ad4	1.0262094
90	0x3f83e541	1.0304338
91	0x3f822ab3	1.0169281
92	0x3f806a2f	1.0032405
93	0x3f866e40	1.0502396
94	0x3f82adab	1.0209249
95	0x3f83900b	1.0278333
96	0x3f7eea15	0.9957593
97	0x3f8542b3	1.041098
98	0x3f86b3ff	1.052368
99	0x3f82e2df	1.0225486
100	0x3f86e147	1.0537499
101	0x3f829a08	1.0203257
102	0x3f83b467	1.028943
103	0x3f82f70a	1.023164
104	0x3f8261e9	1.018613
105	0x3f83ae93	1.0287651
106	0x3f80a47f	1.00502
107	0x3f859af9	1.0437919
108	0x3f85a93f	1.0442275
109	0x3f877f0d	1.0585648
110	0x3f8132bd	1.0093609
111	0x3f78e08b	0.97217625
112	0x3f833512	1.0250571
113	0x3f8549ce	1.0413148
114	0x3f840170	1.0312939
115	0x3f853bd2	1.0408881
116	0x3f81c9a7	1.0139664
117	0x3f82f9c6	1.0232475
118	0x3f83ddc3	1.0302051
119	0x3f852712	1.0402548
120	0x3f83a91e	1.0285985
121	0x3f82d39c	1.0220828
122	0x3f80afa1	1.0053598
123	0x3f818a9a	1.0120423
124	0x3f789d4c	0.97115016
125	0x3f83f9fe	1.0310667
126	0x3f82b84f	1.0212497
127	0x3f840c35	1.0316225

bn3.bias f4 [128]
0	0xbc7a610f	-0.01528193
1	0x3bb0b418	0.0053925626
2	0xbc8f602d	-0.017501915
3	0xbbfb74d2	-0.007673838
4	0x3b20eefb	0.0024556506
5	0xbcfeb1ae	-0.031090584
6	0xba61b109	-0.0008609449
7	0xbce56285	-0.02800108
8	0xbcd64eb1	-0.02616057
9	0xbb1e8040	-0.002418533
10	0xbc077a4b	-0.008268903
11	0xbc14a1db	-0.0090717925
12	0xbb2fe49e	-0.0026839147
13	0xbcbbb03e	-0.022911187
14	0xbc02575f	-0.007955401
15	0xbc620f89	-0.013797649
16	0xbbd2ca1b	-0.0064327843
17	0xbb825fbc	-0.0039786976
18	0xbc990d34	-0.018683054
19	0xbc743432	-0.014905022
20	0xbcfa3a3c	-0.030545346
21	0xbace339d	-0.0015731935
22	0xbcc9ef0a	-0.024650116
23	0xbcb347d7	-0.021884842
24	0xbbbd8374	-0.0057834927
25	0xbbb8e052	-0.0056419754
26	0xbcaae3fe	-0.020860668
27	0xbc85c5f8	-0.01632975
28	0xbc1bde38	-0.00951343
29	0xbc3b2023	-0.011421236
30	0xbc9e6557	-0.019335432
31	0xbc9a48f0	-0.018833607
32	0xbc0554b8	-0.008137874
33	0xbbf955aa	-0.007609089
34	0x3ba9d7e4	0.005183207
35	0xbc3cfef4	-0.011535395
36	0xbceab5eb	-0.028651198
37	0xbc978a43	-0.018498546
38	0xbc3f856e	-0.011689527
39	0xbcaaa213	-0.020829236
40	0xbb62b2fa	-0.0034591542
41	0xbc8f9255	-0.017525831
42	0xbc5bd588	-0.013417609
43	0xbc894709	-0.016757505
44	0x3c194530	0.0093548745
45	0xbd155641	-0.03645921
46	0xbbbf3194	-0.0058347676
47	0x3b99bd6d	0.0046917708
48	0xbc7716d7	-0.015081129
49	0xbc90a63c	-0.017657392
50	0xbc4672ac	-0.012112301
51	0xbc260bcb	-0.010134648
52	0x3aa16451	0.0012313222
53	0xbc227d65	-0.009917592
54	0xbc36524e	-0.011128021
55	0xbb420ccd	-0.002960968
56	0x3ad93b32	0.0016573428
57	0xbcbb6ce3	-0.02287907
58	0x3aba8fff	0.0014233588
59	0xbc90d0f8	-0.017677769
60	0xbc944a29	-0.018101769
61	0xbcc39a58	-0.023877308
62	0xbca5dfa9	-0.020248251
63	0xbcb26d8e	-0.021780755
64	0xbbfe5086	-0.007761064
65	0xbc80f008	-0.015739456
66	0xbc97b72c	-0.01851996
67	0xbbecd0ad	-0.0072270245
68	0x3a1cccc3	0.00059814396
69	0x3bb22aa5	0.0054372125
70	0xbc91b7e3	-0.01778788
71	0x3b378791	0.0028004388
72	0xbca5a904	-0.020222194
73	0xbcbd4e59	-0.023108648
74	0xbc03a2b5	-0.008034398
75	0xbca993fa	-0.020700444
76	0xbc41a050	-0.011818007
77	0xbb83cd02	-0.0040222416
78	0xbc44c5ba	-0.012010032
79	0xbc31abfb	-0.010844226
80	0xbc9bafeb	-0.019004783
81	0x3b90fd56	0.0044247312
82	0xbceabea8	-0.028655365
83	0xbb392d21	-0.0028255659
84	0xba05e936	-0.00051082985
85	0xbb8ab244	-0.0042326767
86	0x3bb23e01	0.0054395203
87	0xbbc15a06	-0.005900624
88	0xbbf4c9d5	-0.0074703493
89	0xbc8a39bc	-0.016873233
90	0xbcb5ae2f	-0.022177784
91	0xbbb9daf9	-0.0056718555
92	0xbc800548	-0.015627518
93	0xbc5ed4ba	-0.013600523
94	0x3b26c572	0.0025447276
95	0xbcec6c63	-0.028860277
96	0xbcc87ce8	-0.024473622
97	0x3ab5b576	0.0013863284
98	0xbc2df35a	-0.010617102
99	0xbc2abdd8	-0.010421239
100	0xbac33971	-0.0014894438
101	0xbc88003e	-0.016601678
102	0xbad7103d	-0.0016408038
103	0xbc5ab6fc	-0.013349291
104	0xbc9b0925	-0.018925259
105	0xbcbb29aa	-0.022847015
106	0xbc1fad38	-0.009745888
107	0xbcb603a5	-0.022218535
108	0xbce3b7d9	-0.027797626
109	0xbc76de31	-0.015067623
110	0xbcc46d15	-0.023977796
111	0xbce13a6a	-0.027493674
112	0xbbf626df	-0.007511958
113	0x391420a3	0.00014126538
114	0xbd033a9b	-0.032038312
115	0xbb0add0f	-0.002118889
116	0xbc6e7afc	-0.014555689
117	0xbd0df92a	-0.03466145
118	0xbcbd0f6c	-0.023078643
119	0xba865e86	-0.0010251559
120	0xbb3cb329	-0.0028793311
121	0xbc5a63f2	-0.013329493
122	0xbcbcb055	-0.0230333
123	0xbcafa3d1	-0.021440418
124	0xbc99935c	-0.018747024
125	0xbce37d7a	-0.027769793
126	0xbc5f584e	-0.013631893
127	0xbc16eaf3	-0.00921129

bn3.running_mean f4 [128]
0	0x3cad7403	0.021173483
1	0xbe94f52f	-0.2909331
2	0x3de71973	0.11284151
3	0x3d37ad25	0.044842858
4	0xbe64bb8b	-0.22337167
5	0xbe24182a	-0.16024843
6	0x3eac9dc5	0.3371412
7	0x3d2512e5	0.040301222
8	0xbdba1135	-0.09085313
9	0x3bbe7dbe	0.0058133295
10	0x3d020e0b	0.031751674
11	0xbe5b400b	-0.21411149
12	0xbdaf8c69	-0.08571703
13	0x3e4dc4dd	0.20094629
14	0x3ee3d5b6	0.44498986
15	0x3d2b8aa2	0.041880257
16	0x3ecd495e	0.40095037
17	0xbb817ef0	-0.0039518997
18	0xbe7847ca	-0.24246135
19	0xbe686d3c	-0.2269792
20	0xbc06406d	-0.008194071
21	0xbed75eec	-0.42064607
22	0xbd6c35f8	-0.057668656
23	0xbe306b89	-0.17228521
24	0xbda68a74	-0.081318766
25	0xbe06788d	-0.13131924
26	0xbdf91427	-0.12162047
27	0xbe2b1aec	-0.16709489
28	0xbe518e32	-0.204644
29	0xbd628133	-0.055298995
30	0xbdeab332	-0.1145996
31	0x3e36ac02	0.17839053
32	0xbad9bb7e	-0.0016611663
33	0xbeb21f70	-0.3478961
34	0xbe101d47	-0.14073668
35	0x3db04cc8	0.08608395
36	0xbf167fe6	-0.5878891
37	0x3ce8e796	0.028430741
38	0xbe338dd5	-0.17534573
39	0xbe7d49bc	-0.24735159
40	0x3ec460f2	0.38355213
41	0xbcca9b74	-0.024732329
42	0xbea18ade	-0.3155126
43	0xbd672902	-0.056435592
44	0xbecd4279	-0.40089777
45	0x3decbcd4	0.115594536
46	0xbe4b86b4	-0.19875604
47	0x3d893795	0.067000546
48	0xbf5ac9da	-0.8546425
49	0xbe36f40c	-0.17866534
50	0xbe89e3d9	-0.26931646
51	0xbd9508e9	-0.0727709
52	0x3dbb40c3	0.09143212
53	0xbdd0bd81	-0.10192395
54	0xbf5b2ec3	-0.8561823
55	0x3d3ca928	0.046059757
56	0x3ecce942	0.40021712
57	0xbd796687	-0.060888793
58	0x3d9f4565	0.07776908
59	0x3e0cff43	0.1376925
60	0xbef42ff1	-0.47692826
61	0x3cebb9da	0.028775144
62	0xbe7bb9bf	-0.24582575
63	0xbe3fb8d6	-0.18722853
64	0xbf2b3a8a	-0.668862
65	0xbdb340d9	-0.08752603
66	0xbdb85777	-0.090010576
67	0x3e2efec5	0.17089374
68	0xbe570ba6	-0.21000537
69	0x3b73b3f5	0.003718612
70	0xbe425d3a	-0.18980876
71	0xbc154b2b	-0.00911216
72	0x3e925701	0.28582004
73	0x3d23e431	0.040012542
74	0xbedf1406	-0.43569964
75	0xbde4e7a3	-0.11176994
76	0xbbd8738b	-0.0066055707
77	0xbf1de674	-0.6167977
78	0xbeb99a69	-0.36250618
79	0xbe71ea02	-0.23624423
80	0x3dc30441	0.09522296
81	0x3e6d58cb	0.23178403
82	0x3e267503	0.16255574
83	0xbece21c5	-0.4026014
84	0xbe4c14f3	-0.19929866
85	0x3ef6f965	0.48237148
86	0x3e749d9b	0.23888247
87	0x3db37c13	0.087639
88	0x3e6842c5	0.2268172
89	0xbd94b656	-0.0726134
90	0xbdf94671	-0.12171639
91	0xbd72a0f5	-0.05923553
92	0xbed929a2	-0.42414576
93	0x3da01398	0.07816237
94	0xbed20d3d	-0.41025725
95	0x3dcb275c	0.099196166
96	0xbe452834	-0.19253618
97	0xbe7df7f2	-0.24801615
98	0x3e78bbe4	0.24290425
99	0xbe57db25	-0.21079691
100	0xbe4a72ed	-0.19770403
101	0xbe552c76	-0.20817742
102	0xbb639cea	-0.003473098
103	0x3d517222	0.051134236
104	0x3e5fa737	0.21841131
105	0xbcf63b81	-0.03005767
106	0x3ebace81	0.36485675
107	0x3e5e4eac	0.21709698
108	0x3e633c35	0.22190936
109	0xbd89bfda	-0.06726046
110	0x3ec2f28f	0.38075683
111	0x3e62bf07	0.22143184
112	0x3cc0e1d1	0.023545178
113	0x3d95ec10	0.07320416
114	0x3e644376	0.2229136
115	0xbec6ea61	-0.38850692
116	0x3c59c77f	0.0132921925
117	0x3e118ea0	0.14214563
118	0xbdf41d3d	-0.11919639
119	0x3e7df3f0	0.24800086
120	0xbe3568b8	-0.17715728
121	0x3ac6b95c	0.0015161443
122	0x3d740265	0.059572596
123	0x3e83ff84	0.2578088
124	0x3dec851c	0.11548826
125	0x3cb90ce0	0.022589147
126	0xbe80e84a	-0.25177222
127	0xbab11224	-0.0013509435

bn3.running_var f4 [128]
0	0x3d3224a7	0.043491986
1	0x3e1a10ae	0.15045425
2	0x3d571013	0.052505564
3	0x3de24d28	0.11049873
4	0x3da8bc03	0.082389854
5	0x3de3510b	0.11099442
6	0x3da8ab22	0.08235766
7	0x3d580f02	0.052748688
8	0x3d5a8f88	0.05335954
9	0x3d9abfb1	0.075560935
10	0x3d85dcae	0.06536232
11	0x3d74fe3a	0.05981276
12	0x3d716749	0.05893639
13	0x3d277907	0.040886905
14	0x3e1439a3	0.14475112
15	0x3d41e0f6	0.04733368
16	0x3d88aee2	0.06673981
17	0x3da84600	0.082164764
18	0x3d8ad246	0.06778388
19	0x3dca16d1	0.09867633
20	0x3d813423	0.063087724
21	0x3dc6303b	0.09677168
22	0x3d5273f9	0.05138013
23	0x3d81e489	0.06342418
24	0x3dcc2437	0.09967845
25	0x3d8e0241	0.06934024
26	0x3d9d51a8	0.0768159
27	0x3d360111	0.04443461
28	0x3e517add	0.20457025
29	0x3d6d8e70	0.057997167
30	0x3dc7f074	0.0976266
31	0x3d975ac4	0.07390359
32	0x3d4aa48f	0.04947334
33	0x3d8aabb9	0.06771035
34	0x3dfb1e6f	0.12261664
35	0x3ded366c	0.11582646
36	0x3e2f5c5f	0.1712508
37	0x3d5f9ee8	0.054594904
38	0x3d65a893	0.056068968
39	0x3ddb47ac	0.1070703
40	0x3da97764	0.08274725
41	0x3d3ae8d7	0.04563221
42	0x3e2a2d62	0.16618875
43	0x3d842178	0.06451696
44	0x3dc70ef9	0.09719653
45	0x3d74d622	0.059774525
46	0x3d948566	0.07252006
47	0x3dbf018a	0.093264654
48	0x3e73f848	0.2382518
49	0x3dc7078f	0.097182386
50	0x3d8f8333	0.07007446
51	0x3e4ffd98	0.20311582
52	0x3da950f8	0.08267397
53	0x3d680441	0.05664468
54	0x3e47970e	0.19491217
55	0x3d743450	0.0596202
56	0x3dbc6386	0.0919867
57	0x3d9ab905	0.07554821
58	0x3d748adb	0.059702735
59	0x3d981df6	0.074275896
60	0x3dea6d03	0.114465736
61	0x3d10de44	0.03536822
62	0x3d8f9e6a	0.07012637
63	0x3dc96cd5	0.09835211
64	0x3e3890f2	0.18024042
65	0x3daef3ec	0.08542618
66	0x3d6ed340	0.058306932
67	0x3d2301ef	0.039796766
68	0x3d8021de	0.0625646
69	0x3db7939a	0.089637
70	0x3d78a901	0.06070805
71	0x3d7efbdb	0.062251907
72	0x3d6cbe1a	0.057798482
73	0x3deef925	0.11668614
74	0x3e215dfc	0.15758508
75	0x3d97a2dc	0.0740411
76	0x3d818680	0.06324482
77	0x3e1f7658	0.15572488
78	0x3dac2249	0.08404977
79	0x3dec38f0	0.115342975
80	0x3da2bd8f	0.07946312
81	0x3da51e46	0.08062415
82	0x3e4cba69	0.19992985
83	0x3d8c0d39	0.068384595
84	0x3db12849	0.08650262
85	0x3e0c3469	0.13691868
86	0x3dc399ef	0.09550845
87	0x3d50597a	0.05086658
88	0x3dce2230	0.100651145
89	0x3e07e1db	0.13269751
90	0x3db744b0	0.08948648
91	0x3d91b71e	0.07115005
92	0x3dbb1895	0.09135548
93	0x3d202ed0	0.039107144
94	0x3d86a8db	0.065751754
95	0x3d28155a	0.041035987
96	0x3d436407	0.047702815
97	0x3d822454	0.06354585
98	0x3d590a34	0.052988246
99	0x3e0c597c	0.1370601
100	0x3d76e353	0.060275387
101	0x3e00a205	0.12561806
102	0x3da61afc	0.081106156
103	0x3e3ae79f	0.18252419
104	0x3d3245eb	0.04352371
105	0x3d7d08bb	0.061775904
106	0x3e057ef9	0.13036717
107	0x3d888d45	0.0666757
108	0x3d539f51	0.051665608
109	0x3d07da7c	0.033167347
110	0x3ddbbb5b	0.107290946
111	0x3e5680f1	0.20947625
112	0x3d7b19d6	0.061303936
113	0x3dcfce6c	0.10146794
114	0x3d54e081	0.051971916
115	0x3d490ab9	0.04908249
116	0x3e0493cd	0.12947007
117	0x3d908750	0.07057059
118	0x3d53cb08	0.051707298
119	0x3d34a003	0.04409791
120	0x3dac10a7	0.08401614
121	0x3d1e38fa	0.038628556
122	0x3daa0b04	0.08302882
123	0x3daac6e0	0.08338714
124	0x3e641465	0.22273405
125	0x3d7e213f	0.062043425
126	0x3d9382f1	0.072027095
127	0x3d93d72c	0.07218775
